src/winston_ai_rl_5s_model.pth (torch, 391693 bytes, 11 tensors)

lstm.weight_ih_l0 f4 [512, 26]
000000 91 7b ad bd 61 a4 0c bc 65 2d 94 3c 83 a1 ba 3d
       -0.08470834 -0.008584113 0.018088052 0.09112837
000010 33 42 87 bd 30 5c a5 bd 20 4b 14 bd bc 3a 29 3d
       -0.066044234 -0.08074224 -0.036204457 0.04131578
000020 1f 90 ab 3d 51 6b 8a 3d cd d4 61 bc 8e 03 8a 3c
       0.08377098 0.0675875 -0.013783646 0.016847398
000030 29 f9 b1 3d 9d b1 e3 3d b5 59 88 bd 22 f0 6b 3c
       0.08690102 0.111178614 -0.06657735 0.014400514
000040 a8 2e 6d 3d 09 45 7b bd 11 a8 8d 3d 6f 91 02 bc
       0.057905823 -0.061345134 0.06916822 -0.007969244
000050 79 da a0 3d f7 d9 5a bb 64 cf a8 3d f8 f9 ef bd
       0.0785417 -0.0033394077 0.082426816 -0.117176
000060 5a 50 1c 3d 24 f7 a9 3d c3 d0 c5 3c 77 79 99 3d
       0.038162567 0.082990915 0.024147397 0.07493871
000070 8d b4 8c 3d 90 3c 15 bd a1 42 96 3d 06 a6 37 bd
       0.06870375 -0.03643471 0.07336927 -0.044836067
000080 44 c0 19 bd c0 de 56 3d 93 05 fc bb 69 0d bb bd
       -0.037536874 0.052458525 -0.007691094 -0.09133417
000090 2e e2 ac 3d d9 bc 96 bd 54 1e 8f bd ac 8e 3c bd
       0.08441578 -0.073602386 -0.069882065 -0.0460345
0000a0 fd 29 47 bd 38 0c ac bd 67 1a 21 bd 23 44 80 bd
       -0.048624028 -0.08400768 -0.03933182 -0.06262996
0000b0 f4 9f 99 bc 4e 3b b2 3c eb 8b a8 bd de be be bc
       -0.01875303 0.021756794 -0.08229812 -0.023284372
0000c0 d5 c3 ac 3b dd 52 8f bd bd 13 67 3b 26 0b d3 3c
       0.0052723684 -0.06998227 0.0035259568 0.025762152
0000d0 07 2f 12 3d 20 a0 43 bd 67 88 25 3c 5e 59 c0 bd
       0.03568938 -0.04776013 0.010103322 -0.093920454
0000e0 98 89 17 bd 73 16 d9 3d 0d 25 27 bd e8 cd 68 bd
       -0.036996454 0.10599985 -0.04080682 -0.056836993
0000f0 da ef 06 3d aa ff 88 3d c5 fa 32 bd 6f 1c 80 3c
       0.032943584 0.06689389 -0.043696184 0.015638558
000100 06 d6 d4 bd 98 b8 37 3d 3a 17 71 bd a4 a6 78 3d
       -0.10392384 0.044853777 -0.05886004 0.060705796
000110 e8 65 9f bd aa d2 51 3d d2 c7 fe bd a0 45 84 3c
       -0.07783109 0.051226296 -0.124404564 0.016146481
000120 27 39 9e 3c 0a 90 5d 3c 24 49 4e 3d 86 73 26 3d
       0.019314362 0.013523111 0.05036272 0.040637515
000130 33 83 ec bd ad 0e c0 3c ea cd ed bd 0c d8 d9 3d
       -0.11548462 0.023444498 -0.116115406 0.10636911
000140 53 24 1d bd 6a ce cf 3d 8f 56 00 3c 32 34 49 bd
       -0.03836472 0.10146792 0.007833137 -0.049122043
000150 1d a0 ef bc be 51 3b bd 9b 82 c5 bc 68 e0 9f 3c
       -0.029251153 -0.045732252 -0.02411013 0.019516185
000160 52 b3 88 3d 27 97 47 3c 9b 31 93 3d a9 46 e2 3b
       0.06674828 0.012182034 0.07187196 0.006905396
000170 f7 b6 8a 3c c5 6c 70 ba a3 f4 57 3d ed f9 c3 bc
       0.016932948 -0.00091714814 0.052723538 -0.023922885
000180 86 d0 52 3d 3e 18 9e bc 14 40 e0 3d 6e 06 2a bd
       0.051468395 -0.019298669 0.10949722 -0.041510038
000190 c1 02 90 bd dc 36 18 bd 9a 48 ba 3a 5d 47 ac 3c
       -0.07031775 -0.037161693 0.0014212311 0.021030122
0001a0 04 5f b0 bd 18 39 a9 3d b8 84 76 3d aa a5 1a 3d
       -0.08611873 0.08262843 0.060185164 0.037755646
0001b0 b6 56 2e bd 15 d4 a9 3d ff 89 8b bd 77 d8 b8 3d
       -0.042563163 0.082924046 -0.0681343 0.090256624
0001c0 6c 75 8d bc a8 13 44 3b 8d 23 5f bd 69 23 ed 3c
       -0.017267905 0.0029918943 -0.054477263 0.028947549
0001d0 0e 14 7e bd ae 7c 3d 3d 4d 14 3b bd f8 b2 83 3c
       -0.062030844 0.046261482 -0.045673657 0.01607655
0001e0 0e eb 9e bd 68 94 de 3c a4 11 cd 3c ac 42 7d bc
       -0.07759677 0.027170375 0.025032826 -0.01545779
0001f0 f0 59 b9 bc 7b da ad bd 81 41 b1 3c bc 38 ba 3d
       -0.022625893 -0.084889375 0.02163768 0.090928525
000200 4a af 84 bd 5e 12 1c 3d 42 cc e3 bb 62 59 6a 3d
       -0.06478746 0.038103454 -0.0069518397 0.05721415
000210 9a 85 93 bd 39 77 7d bd 92 97 d3 bd e8 f1 af 3d
       -0.07203217 -0.061881278 -0.10331644 0.08591062
000220 f0 5e 28 bd ec 92 db bc a4 bc ab bc a5 aa 35 3d
       -0.041106164 -0.026803456 -0.020963974 0.044352192
000230 c0 88 3c 3c 17 80 1e 3d 8a 2a 9c 3d dc 78 39 bd
       0.011507213 0.038696375 0.07625301 -0.045281276
000240 17 3e 37 bc 54 d4 bc bd a9 26 ab bc 1a de 83 3c
       -0.011184237 -0.09220186 -0.020892458 0.016097117
000250 3b 49 0c bc 7d 79 90 3b 66 f7 6b ba 32 78 f1 bc
       -0.008562381 0.004409014 -0.0009001404 -0.029476259
000260 2a 87 b5 3c 87 56 4e 3d be fc 0e 3b e0 4d 50 bd
       0.022159178 0.050375488 0.0021818127 -0.050855517
000270 db bf 60 3d 42 64 2d bd 55 1a 5d 3d be ac 8a 3d
       0.054870468 -0.04233194 0.05398019 0.06771229
000280 f7 a1 83 bd df 23 e2 3c ed fc 36 3c 63 f3 f1 bc
       -0.06427377 0.027604995 0.011168701 -0.029535001
000290 9a c2 99 bc 2f e4 3a 3d 8b cc 28 3d de 74 43 3d
       -0.018769551 0.04562777 0.041210692 0.047718875
0002a0 f8 78 cb bd 11 20 8e 3d 0e 59 53 3d d8 04 96 bd
       -0.09935182 0.0693971 0.0515986 -0.073251426
0002b0 0a 63 cd 3c 57 9d 6c bd c0 78 42 3d 1f 57 1f 3d
       0.02507164 -0.05776724 0.047478437 0.038901445
0002c0 cc 76 82 bd f3 8f a3 3d 3f df a0 3d 07 81 b2 bb
       -0.06370315 0.079864405 0.07855081 -0.00544751
0002d0 4f 12 52 bc 27 29 ae 3d 96 28 53 3c d5 43 6b bb
       -0.012821748 0.08503943 0.012888094 -0.0035898585
0002e0 f0 2b 0b bc d8 f6 0a 3d 38 ca b4 3c b6 62 16 bd
       -0.008494362 0.033926815 0.022069082 -0.03671523
0002f0 ba 94 a2 3d 34 cd 1f 3c b9 47 6e bd 9f d1 2c 3d
       0.079385236 0.009753514 -0.05817387 0.042192098
000300 c7 4f 91 bd bd a8 13 3d f8 69 30 bd c9 06 5e 3d
       -0.070952944 0.036049593 -0.04306981 0.05420569
000310 3c 8f b5 3d f9 4a 38 3d ac 72 42 3d f4 d4 11 bd
       0.088652104 0.044993374 0.04747264 -0.03560348
000320 15 2e 88 3d 75 f8 52 3d 28 03 12 3d 1d b5 8a 3d
       0.066494144 0.05150648 0.03564754 0.06772826
000330 ab ba 48 3d a9 23 4c bd a4 a9 1b 3d 21 28 b6 bc
       0.049006145 -0.049838696 0.03800358 -0.022235932
000340 e4 a4 bd bd b0 c1 93 bd 1b d1 c5 bd f1 6c f7 bc
       -0.09259966 -0.07214677 -0.09659024 -0.030203314
000350 12 c7 a2 bd a9 06 ba 3c 24 84 6b bd 2f d7 b1 bd
       -0.07948126 0.022708254 -0.057499066 -0.08683621
000360 47 1c 99 bd 62 03 91 bd 46 94 91 bd 5c e8 53 bd
       -0.074760966 -0.07080723 -0.07108359 -0.051735267
000370 26 ca 04 bc 7e ce e7 3b e2 c5 2f bd 73 77 db bc
       -0.008104837 0.0070741763 -0.042913325 -0.026790356
000380 64 fd c3 bd f3 88 89 bc de c8 06 3d 87 17 cd bc
       -0.09569815 -0.016788935 0.032906406 -0.025035633
000390 22 e8 05 3c 61 6f 7a 3d 75 14 b1 3d ba 82 f4 bb
       0.008173021 0.061141375 0.0864648 -0.007461873
0003a0 83 e6 35 3d c4 8a 11 bd dd 15 0e 3d ff e4 9e 3d
       0.044409286 -0.035532728 0.03468882 0.07758521
0003b0 4e f3 22 3d ae c2 43 bb b3 40 9f bd 63 2c 21 bd
       0.039782815 -0.0029870677 -0.07776012 -0.03934897
0003c0 00 01 98 bd 20 95 0d 3d f4 44 96 bd 75 6b 8a 3d
       -0.07422066 0.034566045 -0.073373705 0.06758777
0003d0 9b 93 8d 3d ef b8 b7 3c 2e 5b b7 3d a0 2e 3f bd
       0.06912919 0.02242705 0.08952938 -0.046675324
0003e0 e0 8a 7c 3d 82 06 51 3d d8 07 99 bd ac e4 f2 3b
       0.06165588 0.051031597 -0.07472199 0.0074125137
0003f0 f5 6d d8 bc 95 9a a6 3d 13 60 67 3a 99 38 96 3d
       -0.02641962 0.08134953 0.0008826267 0.07335014

lstm.weight_hh_l0 f4 [512, 128]
000000 a7 dc 73 3d 8d a3 a9 3d 9c 03 7b 3d b6 c2 ac 3a
       0.059536602 0.08283148 0.06128274 0.0013180587
000010 90 02 9b 3c 5d 84 70 3d df aa 50 bd a5 20 cc bd
       0.01892212 0.05871998 -0.050944205 -0.09967164
000020 a1 b7 3c 3d 14 2e 24 bb 13 9c a5 3d 8c 8b 75 bd
       0.04607356 -0.0025051879 0.080864094 -0.059947535
000030 33 ca c1 bd 0d 8b 49 3d 09 cc 6b 3c 84 16 60 3d
       -0.094623946 0.049204875 0.0143919075 0.054708973
000040 22 1a 21 3d 25 25 d3 3c 0b 97 71 bd 1f 98 ae 3d
       0.039331563 0.025774548 -0.058981936 0.085251085
000050 e6 37 8a bc 25 6f 8a 3b 9a d8 69 3d 2c 7c d3 3d
       -0.016872358 0.0042246752 0.057091333 0.10326418
000060 bb 7f 87 3d 8f d2 f6 3c f3 eb e7 bc c8 da 4d 3d
       0.066161595 0.030129699 -0.028310752 0.050257474
000070 d0 65 2a bd 0f ba 67 bd 32 2e aa bd f0 15 e8 bc
       -0.041601002 -0.056573924 -0.08309592 -0.028330773
000080 59 47 99 bd b9 1b f8 b9 a6 cb ef b9 de 38 92 3c
       -0.074843116 -0.000473229 -0.00045737362 0.017849382
000090 c3 61 8a 3c f6 c1 70 3c 50 40 e4 3a 7d 0e 84 3d
       0.01689232 0.014694681 0.0017414186 0.06448076
0000a0 c2 fb 07 bd 29 c7 e7 bb e0 02 63 3d d4 bb 9c bd
       -0.03319908 -0.0070733023 0.055422664 -0.07653013
0000b0 1a 0a d8 bc 58 1b 80 bc 8e 09 73 bd 66 2a eb bc
       -0.026372004 -0.015638039 -0.059335284 -0.02870674
0000c0 a6 ba 5d bc eb 77 93 bd c5 a1 20 3d 67 28 ff 3a
       -0.01353327 -0.07200607 0.039216775 0.0019466997
0000d0 bc f3 94 3d db 44 28 3d e4 ee cf bd c4 84 46 3b
       0.07273051 0.04108129 -0.10152987 0.0030291537
0000e0 0c 75 13 3d bd 97 42 bc 77 98 c9 bd 85 de e7 bc
       0.036000296 -0.011876998 -0.098435335 -0.028304348
0000f0 7d 2b cd bc 07 60 86 3c 3e b2 a8 3b 7e f0 0a bd
       -0.02504515 0.016403211 0.0051482012 -0.033920757
000100 ed 69 09 3d 53 3b 10 3d 87 ec 75 bd 16 64 24 bd
       0.033548284 0.035212826 -0.060040023 -0.040134512
000110 8e cd bd bd 36 df 99 bd a9 d2 b5 3c ad 8f 2b bd
       -0.09267722 -0.07513277 0.022195177 -0.041885067
000120 18 07 81 bc 8c 20 bf bc 72 0b 11 bd b8 12 20 bd
       -0.015750453 -0.02333095 -0.035411306 -0.03908035
000130 9e 82 a3 3c c8 c3 66 bd 4a 44 85 3d fa 72 90 3d
       0.019959744 -0.056339055 0.06507166 0.0705318
000140 f8 66 91 bd 7e f1 62 bc 3d 67 97 3d ab bf 90 bb
       -0.07099718 -0.013851522 0.07392738 -0.00441738
000150 8f 30 a2 bd d7 f6 1d 3d 2a a6 e0 bc 5e b2 c4 3c
       -0.07919418 0.038565483 -0.027422983 0.024010833
000160 ee 99 7e bb 50 6b 5f 3c 21 f3 1b 3d b2 72 b3 3d
       -0.0038849073 0.013636425 0.038073663 0.08762111
000170 ba 34 74 bd 28 0b c3 3c 6e ef 4c 3b ae 78 2b bd
       -0.059620596 0.02380903 0.003127064 -0.041863136
000180 47 76 07 bd 57 2a 24 bb 4c 40 8f 3d 9d 3d b2 bd
       -0.033071782 -0.002504965 0.069946855 -0.08703158
000190 9e 5b 92 3d 8d 50 8e 3c ff 2f 54 bd 5f 18 2c bd
       0.07146381 0.017372394 -0.051803585 -0.04201543
0001a0 d8 f3 03 bd f0 05 c8 3c 80 96 90 3d 0c 91 72 3c
       -0.03221497 0.024416894 0.070599556 0.01480509
0001b0 8f da 8a bc 3d a9 78 3b 4b 4e 4c bd eb f1 d6 3c
       -0.01694992 0.003794267 -0.049879353 0.026238402
0001c0 bb 06 8e 3a 8c 52 49 bd 5d e1 9a bd 98 5a 9e 3b
       0.0010835746 -0.04915099 -0.07562516 0.004832577
0001d0 14 f7 03 bd 91 8d 5d bd 81 04 66 bd 7f 17 da 3c
       -0.032218054 -0.054090086 -0.05615664 0.026622532
0001e0 33 3c e5 bc 2c 5f f6 3c 49 9e 98 bd 04 e1 8a 3c
       -0.027982807 0.030074678 -0.074520655 0.016952999
0001f0 1a 9a 9b 3b 56 dd 87 bd de c7 5c bd cc 25 22 3d
       0.004748595 -0.06634013 -0.053901546 0.039586827
000200 a8 f9 80 3d 1b db f6 3c 3c 1f 63 3d b9 fb a0 bd
       0.06297618 0.030133775 0.05544971 -0.07860512
000210 1e 75 87 bb 98 84 3f 3d 47 40 d5 3d cd d2 a4 bd
       -0.0041338345 0.04675731 0.104126506 -0.080480196
000220 28 5c 4a 3d 47 bf b6 3d 2c 5b b2 3c 49 3e 5a bd
       0.049404293 0.08923202 0.02177199 -0.053282056
000230 c6 1a 42 3d b3 17 15 3d c7 8a 52 3d ab 41 82 3c
       0.047388814 0.036399554 0.05140188 0.015900454
000240 5f 7d 2d 3d 76 5d 81 bd 43 4a 96 3c f8 b1 e4 3b
       0.04235589 -0.063166544 0.018345958 0.0069792233
000250 96 f5 b1 bd b5 1f c4 bc 5d 10 4b 3c 1d 7c e1 bb
       -0.0868942 -0.0239409 0.012394038 -0.0068812505
000260 14 e2 2d bc d7 9e f3 bb f1 c8 84 bd ae cf 9a bc
       -0.010612983 -0.0074347067 -0.06483639 -0.018897858
000270 c0 93 2e 3d f8 9f 63 3d 27 f6 ae bd f5 3d 9a 3d
       0.042621374 0.05557248 -0.085430436 0.075313486
000280 c0 fb c0 bc 1b 91 c4 3a 1c 38 8f bc 82 18 8d bd
       -0.023557544 0.0014996858 -0.01748281 -0.0688944
000290 72 fc a5 3d a1 a7 9a bd 42 11 f8 bb 44 53 e6 3c
       0.08104791 -0.07551504 -0.0075704167 0.028115876
0002a0 12 92 9a 3c c8 98 1f bd 56 8e 84 3d b6 4b 6e bd
       0.01886848 -0.038964063 0.06472461 -0.058177672
0002b0 3e 63 44 bd 06 f8 16 bd a3 3e 20 3d 17 7f 24 bd
       -0.047946207 -0.036857627 0.039122235 -0.040160265
0002c0 61 c0 78 3d 49 12 64 bd a1 51 e8 3c a4 3e 2a bd
       0.06073034 -0.0556815 0.028359236 -0.041563645
0002d0 0e 7e 5f bd d2 43 71 3b d7 9b 67 bd e2 fb 02 3d
       -0.054563574 0.0036814106 -0.056545105 0.031978495
0002e0 a6 c1 28 bd 5f 2f 48 3d b4 a5 76 3d 80 80 ab bd
       -0.041200303 0.0488733 0.06021662 -0.08374119
0002f0 5b 11 f7 bc e7 b8 f3 bc 54 e2 62 bd ce 71 01 bc
       -0.030159643 -0.029751254 -0.055391625 -0.007900668
000300 7c cb 7a b8 4b cc 16 3d 63 ce 0e bd c0 6b 6d bd
       -5.9794154e-05 0.036815923 -0.034864794 -0.057964087
000310 57 a5 c7 bc 4e 5f 5d 3d 55 58 ca 3d a8 ab c0 3b
       -0.024370832 0.054045968 0.09880129 0.005879838
000320 ed 38 5e bc eb a7 2d 3d b7 b5 86 bc da cd 25 3d
       -0.013563377 0.042396467 -0.01644407 0.04047952
000330 73 f2 a7 3c fe 82 a2 3d 21 cb a2 3c 07 fb 56 bc
       0.020501351 0.07935141 0.01987225 -0.013121373
000340 24 0e a1 bc b9 ac 9f bd d0 3f a1 3d 3c 3d 23 3d
       -0.019660063 -0.07796616 0.078734994 0.03985332
000350 ce b2 21 bd 9d 87 f4 bc 04 02 67 bd 38 af 80 bd
       -0.039477162 -0.029849822 -0.056398407 -0.0628342
000360 e3 87 61 bd 6f 5b c8 3d fa 84 5e ba e8 51 52 bd
       -0.055061232 0.097830646 -0.0008488443 -0.051347643
000370 aa 64 aa bd fd 04 27 bc 94 2a ac bd a2 ac 69 3d
       -0.083199814 -0.01019406 -0.08406559 0.0570494
000380 6e 98 80 bd ad 61 56 3d 9f 51 52 bb ba e4 a4 3c
       -0.06279074 0.052339245 -0.0032092107 0.020128597
000390 65 fb 4a bd 8c cf b6 bb 51 8e 3d bc c6 78 6e 3d
       -0.049556155 -0.0055789407 -0.011569575 0.058220647
0003a0 0d a3 05 3d 7f 07 69 3c 22 d7 b6 bc cb ae 63 3d
       0.0326262 0.014222979 -0.02231938 0.055586617
0003b0 a2 26 95 bc d5 c5 9c 3c 94 19 8b bc 99 6f 28 3d
       -0.018206898 0.019137302 -0.01697997 0.041122053
0003c0 a6 95 1d 3c 90 34 3b 3b 5d a0 c2 bd 76 ca 47 3d
       0.0096181985 0.0028565265 -0.09503243 0.048777066
0003d0 5b 7a 48 3d ee d0 04 bd ba e6 02 bc 0b d8 60 bb
       0.048944812 -0.032425813 -0.00798958 -0.003430846
0003e0 68 8b e3 3c 1a 3f 10 3d 33 df 57 3c 70 fa b7 3b
       0.027776435 0.03521643 0.013175773 0.0056145713
0003f0 6c c9 ea bc 42 05 3d 3d 6d 95 a2 3c 02 6f 95 bc
       -0.028660499 0.046147592 0.019846642 -0.01824141

lstm.bias_ih_l0 f4 [512]
000000 e9 77 44 3d 6a 5a 00 3c 9f a4 be 3d ba 48 06 3e
       0.047965918 0.007834056 0.09308743 0.1311368
000010 a6 19 8b bd 1b e4 bf 3d df 32 e9 bc 95 64 21 3d
       -0.067920014 0.093696795 -0.02846664 0.039402563
000020 e1 a5 7b 3d b1 c7 65 3d 47 b6 f6 3d a1 5d 6c 3d
       0.06143749 0.056098644 0.120464854 0.05770648
000030 78 c2 24 3d 0a d4 8c 3d 67 5d 98 bd 8c 27 19 bd
       0.040224522 0.06876381 -0.0743969 -0.03739123
000040 de 90 02 bd 18 bf 71 3b ce 33 68 3d 81 93 ae 3c
       -0.031876437 0.0036887582 0.05669003 0.02131057
000050 84 38 04 3d 87 f2 9e 3b 00 67 c1 3d 2e 86 18 bd
       0.03228046 0.004850689 0.09443474 -0.03723734
000060 1a ec 2d 3c 2f ee aa bb 13 45 49 3d 7a f2 40 bd
       0.010615373 -0.005216382 0.04913814 -0.047106244
000070 b5 4b 46 3d 20 89 1b 3d b0 24 a1 bc 53 60 20 bb
       0.048412044 0.03797257 -0.019670814 -0.0024471476
000080 4e b6 7f 3d a5 66 ab 3d 0f 2a 9b 3d ff 23 a4 3d
       0.06242972 0.08369187 0.075763814 0.08014678
000090 17 b9 d3 3d b8 af aa bd 7b f7 c3 3d 71 32 35 3c
       0.103380375 -0.08334297 0.095686875 0.011059389
0000a0 32 69 0c 3c 5a 94 30 bd 93 a4 a0 bc 0c ef 65 3c
       0.008570002 -0.04311023 -0.019609725 0.014034044
0000b0 db b9 f6 bd 30 2f 5a 3d fe d3 1a bd 03 71 c1 3c
       -0.12047168 0.053267658 -0.037799828 0.023613458
0000c0 d1 d9 70 3d 62 08 96 bd 76 14 cd bd c1 d9 e2 bd
       0.058801476 -0.07325818 -0.10013668 -0.110766895
0000d0 3c 08 a5 3d 03 d0 b9 bd a1 3c f7 3b 91 2a f6 bc
       0.08058211 -0.09072878 0.0075450693 -0.030049594
0000e0 93 8f d3 bd 05 5d 82 3d 47 f7 ec 3c a2 9a a4 bd
       -0.10330119 0.06365398 0.028926505 -0.08037306
0000f0 bb fa 8c 3d 64 89 56 3c 00 35 98 bd 05 eb 07 3e
       0.068837605 0.01309428 -0.07431984 0.13273247
000100 46 a7 a0 bd 16 4e ed 3a 88 75 22 bd 85 c3 a6 ba
       -0.07844405 0.0018104936 -0.039662868 -0.0012723064
000110 94 99 0f 3d 71 3b f1 3d c0 a5 34 ba 3d db 41 bd
       0.035058573 0.11778916 -0.0006891154 -0.047328223
000120 0d 5c b0 3d 17 3b 53 bd 10 fd 85 bc 11 d3 8b 3d
       0.08611307 -0.051570024 -0.016356021 0.06827367
000130 a4 ba d5 3b e1 64 c0 3d 39 0e 05 bb 0a 95 a5 bc
       0.0065224934 0.09394241 -0.0020302667 -0.020212669
000140 c9 1a e2 3a 5a d0 65 bd 6d 25 6c 3d 9f 63 be bd
       0.0017250414 -0.056106903 0.05765288 -0.09296345
000150 1c 75 9f ba 37 f4 05 bd 73 f2 85 bd d1 77 ad 3a
       -0.0012165639 -0.032703605 -0.06540384 0.0013234561
000160 de 4b bc bd ec f8 f6 bc e5 71 a4 3d 75 b7 b5 3d
       -0.09194158 -0.030147992 0.08029536 0.08872882
000170 3d 8f a8 3d 88 98 82 bc 29 27 82 bd 9a 12 3f bd
       0.082304455 -0.015941873 -0.063551255 -0.0466486
000180 82 5c 5c 3d 14 71 8b 3d 11 7a 35 3c de 47 56 3d
       0.05379916 0.06808677 0.011076466 0.05231463
000190 12 12 47 3c 47 8f 00 3c 74 74 64 bc 86 59 9c bd
       0.012150304 0.00784666 -0.01394378 -0.07634263
0001a0 4a 54 8c bd b4 66 47 3d 02 5b 1b 3d 1c bd a9 bd
       -0.06852014 0.04868193 0.03792859 -0.08288023
0001b0 e7 90 03 bd 31 58 1a bd d0 1e 99 bd 44 10 a4 3d
       -0.03212061 -0.037681762 -0.0747658 0.08010915
0001c0 84 c2 c7 3c 29 b6 f0 3b 8c 84 88 bd 9b 9b 90 bd
       0.024384744 0.007345934 -0.06665906 -0.070609294
0001d0 4f 8e c0 3d 9c 49 8a bd ed 6a 2b 3d d3 ae 85 3d
       0.09402143 -0.06752321 0.04185002 0.06527486
0001e0 8f 01 0a 3d 1d d8 5e bd 25 76 97 bd 31 b3 c9 3d
       0.033692893 -0.05440532 -0.07395581 0.09848631
0001f0 5a 57 e3 3c 02 d0 d8 3d ed fc b5 3d 2b 59 42 3d
       0.027751613 0.10586549 0.088861324 0.04744832
000200 29 7b 8b bd 6f a4 a6 3c 66 a3 db 3c 44 2a 06 3d
       -0.068106 0.02034208 0.026811313 0.03275515
000210 1c 27 a9 bc 1d 35 9d 3d ae 05 e5 bd f5 a3 68 bd
       -0.020648532 0.07676146 -0.11182724 -0.056796987
000220 fa 72 63 3d bf d2 59 3d 2f 8e 6b 3d a1 7a 4f bd
       0.055529572 0.0531795 0.057508644 -0.050654057
000230 38 33 be bb 16 51 2f 3d 48 28 0c bd 4e d4 5e bc
       -0.0058044456 0.04280194 -0.034218103 -0.013600422
000240 cd f4 0a bd 34 a9 24 bd 35 25 3e bd 64 15 b2 bd
       -0.033924866 -0.040200427 -0.046422202 -0.08695486
000250 f6 18 63 bd 62 3a 0c 3d b2 8b b4 3d b0 1f 8d 3d
       -0.055443726 0.034235366 0.08815707 0.068908095
000260 04 0f c4 bc b1 0b 8e 39 44 a8 a7 3c dd 92 de bb
       -0.023932941 0.0002709306 0.020465977 -0.00679241
000270 3e 35 8f 3c 60 a3 bb 3d 83 cd 09 3d 89 cc b5 3d
       0.017481443 0.09162021 0.033643257 0.088769026
000280 bb aa d2 bc 20 7b b7 bc 19 32 9a 3d e8 9f 8b 3d
       -0.025716176 -0.022397578 0.075290866 0.06817609
000290 b2 9b 8d 3d 3e ba 10 bd 16 2e a3 3d 3b fd 85 3c
       0.06914462 -0.035333864 0.079677746 0.016356101
0002a0 65 fc 83 3d d5 21 3d bb 21 93 a0 3d 80 27 7a bd
       0.06444625 -0.0028859277 0.078405626 -0.061072826
0002b0 f8 84 70 3c 8a 29 50 bd 9e dc ab 3c 2b 54 04 3c
       0.01468014 -0.050820865 0.020979222 0.008076708
0002c0 97 a2 c8 bb 22 cd a9 3c 3d af 97 bc 34 5f 6d 3d
       -0.006122898 0.020727698 -0.018516177 0.05795212
0002d0 cd 0a 83 3c 3e a7 02 3d ff e7 8c bb df 98 92 bd
       0.015996361 0.031897776 -0.004300117 -0.07158064
0002e0 ff 61 ed bc d0 e5 be 3d 9b 1b f0 bc 58 aa a1 3d
       -0.028977392 0.09321177 -0.029310038 0.078938186
0002f0 5a 0e 5e b9 bb 05 98 bd 38 44 a0 3c 72 b7 d1 3c
       -0.00021176916 -0.07422968 0.01956378 0.025600169
000300 a1 66 66 bd fe 69 9f 3d 6a 09 a2 bc e6 b5 28 bd
       -0.05625022 0.07783888 -0.01977988 -0.041189097
000310 96 e7 1b bc 44 d0 a6 3d 97 96 6e 3d af b7 8d 3d
       -0.009515664 0.08145192 0.058249082 0.069198005
000320 5e e4 ce 3d 46 33 e9 3c 63 10 22 bd 6e e6 5a 3c
       0.10102151 0.028466832 -0.03956641 0.013360603
000330 28 28 b2 bc 70 ef 6f 3c 7c 11 66 3d a5 56 ac bd
       -0.021747664 0.014644489 0.05616902 -0.08414964
000340 0a 88 92 3d 95 25 49 bd bc 91 08 bd 8d 59 9c bd
       0.07154854 -0.049108107 -0.033342108 -0.07634268
000350 4a 14 07 3e 41 ae 5e ba 78 d1 3d 3d 9a a1 6a bd
       0.13191333 -0.0008494594 0.046342343 -0.05728302
000360 d7 61 cb bd 11 e4 7b 3d 32 45 07 3d 8e d7 dd 3d
       -0.09930771 0.061496798 0.033024974 0.108321294
000370 f7 47 34 bb 4b 8b af 39 44 7a 88 3c 52 78 1b bd
       -0.0027508715 0.00033482382 0.016659863 -0.037956543
000380 72 47 ac 3d ea b7 5a bb 2a a5 2d 3d 3f ec af 3d
       0.084120646 -0.0033373781 0.04239384 0.08589982
000390 84 db 87 3c 04 b9 ba bd 03 9c bb bc 1e 4a 40 bd
       0.016584165 -0.0911732 -0.02290154 -0.046945684
0003a0 9c 36 ef bc 07 21 06 3d 3a 5f c8 bd 09 f1 b5 bd
       -0.029200844 0.03274634 -0.09783788 -0.088838644
0003b0 69 4a a6 3d d7 94 2f 3d 1b 72 41 3d 2d c2 68 3d
       0.08119661 0.042866554 0.04722796 0.056825805
0003c0 16 35 07 3d 1b cb a9 3d 9c b9 74 3d 73 51 c2 bc
       0.03300961 0.082906924 0.059747323 -0.023720479
0003d0 00 43 2b 3d f7 f5 80 bc fe f8 1b bc 43 7b 99 3d
       0.041811943 -0.015742285 -0.009519814 0.074942134
0003e0 13 3a 56 bd 12 3b a0 3d c4 47 0a 3d 1f fd 3b bc
       -0.052301478 0.07823767 0.033759847 -0.011473923
0003f0 36 e2 17 bd e0 ef 04 3e 2b d9 25 3d ba 12 2e bc
       -0.037080966 0.1298213 0.04049031 -0.010624582

lstm.bias_hh_l0 f4 [512]
000000 9b 1b 9c 3d 7d 59 99 bd 10 61 97 3d 71 5d 81 3d
       0.07622453 -0.07487772 0.0739156 0.06316651
000010 1c d8 15 bd cd e9 a2 3d d4 cb a4 bd 20 a1 fa 3c
       -0.03658305 0.0795475 -0.0804669 0.030594409
000020 31 17 0f bd 26 a2 80 3d f7 10 ee 3d 8f 7a ab 3d
       -0.034934226 0.06280927 0.116243295 0.083729856
000030 d6 6c d0 bd df 14 f9 bc 61 21 85 bd c9 40 cb bc
       -0.10177009 -0.03040546 -0.06500507 -0.024811165
000040 9b 19 da bc 1b 93 3d bd 0b e9 17 3d dd 9e 7d 3c
       -0.026623538 -0.04628287 0.03708748 0.0154797705
000050 1a 0b 6d 3c 27 2a 26 3d 94 c9 25 3c ea 05 ca 3d
       0.014467979 0.040567543 0.010118861 0.09864409
000060 e2 b8 b7 3c 88 62 1b 3d 0a 18 97 3d f0 fd 40 3d
       0.022427026 0.037935764 0.07377632 0.047117174
000070 34 0b 1e 3d dc 8e 09 bb ed 53 75 bd e3 ce 55 bd
       0.038584903 -0.0020989692 -0.05989449 -0.052199256
000080 62 fb 19 bd 22 73 a7 3c 2e f2 2a bd 7c 16 27 3d
       -0.037593253 0.020440642 -0.041734867 0.040792927
000090 16 a1 6f bc c5 9e c7 bc b1 d7 6a 3d 1d f8 2a bd
       -0.014625808 -0.0243677 0.057334606 -0.041740526
0000a0 4e 98 9c bd 3c 36 b2 bd 92 50 95 bd 86 cb 53 bc
       -0.07646237 -0.08701751 -0.07290758 -0.012926942
0000b0 8b b3 49 bd 77 86 9f bb 15 58 03 bd 3e 96 1f 3d
       -0.04924349 -0.0048683244 -0.032066423 0.03896164
0000c0 bc 94 8e bc d4 d8 9b bd b2 8e 42 3b 2d 56 c6 bd
       -0.017404906 -0.07609716 0.0029687104 -0.096844055
0000d0 99 2e 66 bd eb a7 b1 bc 70 d1 32 bd 2f 33 31 bd
       -0.056196783 -0.021686515 -0.043656766 -0.043261703
0000e0 83 6e bd 3c 57 19 57 3d 65 17 15 bd 87 41 51 3c
       0.023123985 0.0525144 -0.036399264 0.012771971
0000f0 76 3b b4 3d 33 ca c2 bc b8 b3 43 3d 86 e5 b4 3c
       0.08800404 -0.023778057 0.047778815 0.022082102
000100 eb dd ea 3c 50 b4 08 3d fb ab b3 bd 29 34 06 3d
       0.028670272 0.033375084 -0.08773037 0.032764588
000110 00 86 43 3c 6b d3 c3 3c f0 f8 cc 3c b4 30 ac 3d
       0.011933804 0.023904523 0.025021046 0.08407727
000120 7f b1 bc 3d 0e c1 64 3c 2e 14 c8 bb 23 d1 86 3d
       0.09213542 0.013962043 -0.006105921 0.065828584
000130 d4 70 4a 3d d5 8a 4e 3d 32 8d 3e 3c 46 69 ea bb
       0.049424008 0.05042537 0.011630343 -0.007153663
000140 fc a1 24 3d a8 0d 9d bd 59 1a 4f bd f2 10 f4 3c
       0.040193543 -0.0766862 -0.050562236 0.029793236
000150 62 5b 93 3d 3f 09 13 3d 3e f9 56 bd b3 60 ab 3d
       0.07195164 0.03589749 -0.05248379 0.08368053
000160 96 1a 52 3d f8 f0 88 3d 0f 63 71 3d 71 53 1e bd
       0.051294886 0.06686586 0.05893236 -0.038653795
000170 62 be 2d bd 9f 4f 3e 3c 88 2e 40 bd f0 36 ee 3c
       -0.04241789 0.011615663 -0.046919376 0.02907893
000180 a7 62 1c bc d6 92 18 bd 3a 3a 5e bd 1e 47 68 bd
       -0.009545005 -0.03724941 -0.054254748 -0.056708448
000190 c2 c1 87 3d cd b1 8a bc 24 4c 44 bd 3c a3 42 3b
       0.06628753 -0.016930485 -0.047924176 0.0029699346
0001a0 55 53 d7 bd 35 1d 6e bd 07 aa fb 3c 6f bf e9 bd
       -0.10513941 -0.058133323 0.030720724 -0.11413466
0001b0 a5 63 98 3d 4b 66 67 3d ee 94 b8 bc d5 93 40 bd
       0.07440881 0.05649404 -0.022531953 -0.047015984
0001c0 b9 bd 6d bd c8 ce 8c 3d af d9 02 3a 4b 6d 07 bc
       -0.05804226 0.06875378 0.0004991544 -0.008265804
0001d0 3a 24 d9 3c 3d 48 94 bd 40 23 03 3e a6 ce bf 3d
       0.026506532 -0.07240341 0.12806416 0.09365587
0001e0 01 0b 04 bd 4e 1e 97 3d 24 81 a5 3c 3b 0e a2 3d
       -0.032237057 0.07378827 0.02020318 0.079128705
0001f0 7b a1 17 3c 58 d1 02 bc 7f 30 ad 3c 8c 19 1b 3d
       0.009254809 -0.007984482 0.021141289 0.03786616
000200 48 4e 45 bd dc bf 43 3c d0 c2 ce 3d 49 99 de 3d
       -0.048170358 0.011947598 0.10095751 0.108690806
000210 49 4f 04 bc 8f 20 18 3e c6 2c c3 bd a1 49 d1 3d
       -0.008075544 0.1485617 -0.09530024 0.10219122
000220 5c 70 2e 3d 01 b9 b0 3c ed 37 e1 3d aa 3b 4f bb
       0.042587623 0.021572592 0.10996995 -0.0031621256
000230 a7 3d aa bd c8 84 b2 bc 50 ec 89 3d a1 56 c5 bd
       -0.083125405 -0.02179183 0.06734526 -0.09635664
000240 5c 66 87 3d 99 c1 a2 bc 74 f1 4b bb 7d cf 95 bd
       0.066113204 -0.019867705 -0.003111926 -0.07314966
000250 38 83 0b 3c 7a 6a 31 bd 48 7c 9b 3d 6f b0 85 ba
       0.008515172 -0.043314435 0.07592064 -0.0010199676
000260 6d fd 6f bc 9d 86 66 bd 7c f0 ed 3c 96 65 22 3d
       -0.014647824 -0.05628072 0.029045336 0.03964766
000270 b4 17 68 bd ce 40 7c 3d 3e b7 fa 3c b6 75 8f 3b
       -0.05666323 0.06158524 0.030604955 0.004378046
000280 d7 55 5b bb 8f b0 7e bd d8 94 59 3d 46 bd 2f 3d
       -0.0033467913 -0.0621801 0.053120464 0.042905115
000290 43 87 b3 bc 12 69 23 3d 81 8c d5 3c a3 9d 2c bd
       -0.021915084 0.039895125 0.026067974 -0.04214252
0002a0 64 0c 81 3c fa bf fe 3c ef c3 31 bc 00 4e 75 bd
       0.015752979 0.031097401 -0.010849937 -0.05988884
0002b0 83 8b ad bd 42 c7 5f 3c e4 03 38 bd ce 7d 93 3d
       -0.084738754 0.013658347 -0.044925585 0.0720173
0002c0 71 a2 47 bd dd 50 94 bd 60 f4 6b bd 59 b5 e0 bd
       -0.0487389 -0.07241986 -0.0576061 -0.10972089
0002d0 25 62 c1 3d 88 e5 95 bc 6d d9 01 3c 55 6e cb 3c
       0.09442548 -0.018297926 0.0079253735 0.024832884
0002e0 cf 13 38 3d 53 86 0a 3e df fa fa 3c 59 b2 ca bc
       0.044940766 0.13527803 0.030637203 -0.024743246
0002f0 41 81 cf 3d ae 18 c9 bd 88 2c 84 bc fe 57 0c 3d
       0.10132075 -0.098191604 -0.016134515 0.034263603
000300 76 19 fa bc 35 27 15 bd 91 21 62 bd e6 4b 9d 3d
       -0.030529719 -0.036414344 -0.055207793 0.07680492
000310 83 f0 ca 3c 9c f6 9e bc bd 69 e1 3d 7e b5 c0 3c
       0.024772888 -0.019404702 0.11006496 0.023524042
000320 c9 51 f6 bc 5c c7 40 bd 24 8c 40 bd 72 00 dd ba
       -0.030068295 -0.047065124 -0.04700865 -0.0016861095
000330 6b 1b d5 3d 7b 34 2d 3d 5a 32 d2 bc 6c 55 9b 3d
       0.1040562 0.042286377 -0.025658775 0.07584652
000340 06 54 83 3c 17 f7 46 3d 41 8a ad bb 0b d9 ff bc
       0.016031276 0.048575487 -0.005296022 -0.031231424
000350 02 fe cd bc 22 15 9d bd 88 ed 80 bd 88 8d 75 3a
       -0.025145534 -0.076700464 -0.062953055 0.0009367098
000360 42 21 b9 bd 79 da 01 bd e6 4d 14 3d bd 0e 38 3d
       -0.090395465 -0.031702492 0.036207102 0.04493593
000370 a0 a3 7c 3d c3 38 f2 3d 8e 93 ba 3d 69 9b a5 3b
       0.061679482 0.11827233 0.09110175 0.0050539267
000380 ed ff 36 3d 2c 45 ad 3c 40 29 ad 3b dc 9b 14 3d
       0.044677664 0.021151148 0.0052844584 0.03628145
000390 89 38 19 bc 3b e3 90 3c 00 bb 5d bd ed 7c b2 bd
       -0.009351858 0.017686477 -0.054133415 -0.08715234
0003a0 51 54 da 3c f0 a1 81 bd ca b7 6d bd 9b f6 24 3d
       0.026651533 -0.06329715 -0.058036603 0.040274244
0003b0 cf 58 a2 3d 99 53 41 3d 85 ec 22 bd 60 f4 9f 3c
       0.07927095 0.047198866 -0.039776344 0.019525707
0003c0 a7 b8 b3 bd 31 ff 96 bc c0 2b 67 bd 36 fd 5d 3d
       -0.08775454 -0.018432232 -0.056438208 0.05419656
0003d0 a8 b5 60 bd 36 86 87 3b ae 54 c5 3d ef b1 92 3d
       -0.05486074 0.0041358722 0.09635292 0.071628444
0003e0 ee e9 f6 bc 1f e5 bf 3d cd b8 b6 3c eb eb d8 3c
       -0.030140843 0.09369873 0.022304917 0.026479682
0003f0 dc 6f fb 3b e3 3f ab bb 2d 53 52 bd 93 86 5d bd
       0.007673247 -0.0052261217 -0.051348854 -0.054083418

actor.0.weight f4 [64, 128]
000000 f2 60 bf bd 45 df 6f bc 3e 52 21 bd 55 b1 27 bd
       -0.09344663 -0.014640634 -0.039385073 -0.0409406
000010 87 46 c0 3c f9 26 be bd a2 98 e1 3d c4 69 74 bd
       0.02347113 -0.09284777 0.110154405 -0.05967118
000020 2b c4 2d 3d bc 7d 15 3d 9d 58 ae 3d f1 8d 34 bd
       0.04242341 0.036496863 0.085129954 -0.04408068
000030 80 e1 a0 3d 8d d2 f8 bd e1 a7 69 3d 59 0d 62 3d
       0.07855511 -0.121495344 0.057044867 0.05518851
000040 52 fc 8a 3d 09 1e b1 bc 21 87 6e 3d 81 d0 35 bd
       0.067864075 -0.021620767 0.058234338 -0.044388298
000050 15 43 bc bd 0b b6 b7 bc ec 8e 08 3d de ad 46 bd
       -0.091924824 -0.022425672 0.033339426 -0.048505656
000060 50 1a ad bd 1d 93 3c bd cc ff ad 3b 2d 9c 53 3d
       -0.08452284 -0.046038736 0.0053100344 0.051662613
000070 b6 4e 59 3d e8 e6 13 be 50 e1 48 bd 23 ba 89 3d
       0.05305358 -0.14443552 -0.049043 0.06724956
000080 19 12 f1 3c 4a 96 3c bd 48 fe 1b 3d 0a 6b 8f 3d
       0.029427575 -0.046041764 0.0380843 0.07002838
000090 63 cc c5 3d 42 7f c0 bb 8f d8 63 3d 6b 97 14 3d
       0.09658124 -0.0058745453 0.05562645 0.036277216
0000a0 9a 52 ae bc 4d 9b 91 bd 1b ef a9 bd df d4 70 bd
       -0.021279622 -0.071096994 -0.08297559 -0.05879676
0000b0 d5 96 dc 3c cf 2b e7 3d 56 d4 a4 3b 2f 4c 3a bd
       0.026927391 0.11287653 0.005030195 -0.04548281
0000c0 4e a2 9c bd 26 6d 94 ba 28 97 aa bd fe a6 ca 3b
       -0.07648145 -0.0011324033 -0.08329612 0.006184458
0000d0 b5 d2 b6 3c ba ad 83 3d 51 ad cf 3d 09 a7 c5 39
       0.02231727 0.0642962 0.10140479 0.0003769922
0000e0 45 6b 9b 3c a4 90 87 3d 81 49 4e bd f1 0e c6 bc
       0.018972049 0.06619385 -0.050363068 -0.024177046
0000f0 c4 f4 ed bd d2 07 74 3d 76 d5 ac bd b7 77 b1 bd
       -0.11618951 0.05957777 -0.08439152 -0.08665412
000100 85 e6 08 3c 01 80 21 bc fa 20 ab 3c 44 2b bb bc
       0.008355741 -0.009857179 0.020889748 -0.02284778
000110 03 12 e9 3b ed 21 02 be 0e f0 04 3e 8e 06 be bc
       0.007112743 -0.12708254 0.12982199 -0.023196485
000120 2e 14 42 bd e0 2e d7 3d f4 4f 8d 3d 9f c1 26 bd
       -0.047382526 0.105069876 0.069000155 -0.040711995
000130 df 82 b9 bb 3b 2f a4 3d 6d 9d 3f bd ff 35 d8 bd
       -0.005661353 0.08016821 -0.046780992 -0.10557174
000140 af e8 f5 3c 37 9d a8 bd 4f f1 a3 bd dc eb b5 bd
       0.030018179 -0.08233111 -0.0800501 -0.08882877
000150 ad 85 84 3b 1e 77 9a 3d 76 82 41 3d 6d 01 cb bd
       0.0040442557 0.07542251 0.047243558 -0.09912381
000160 63 c4 55 bd c9 0d 87 3d f2 c8 ed 3d ca 83 10 bd
       -0.052189242 0.06594426 0.11610593 -0.035281934
000170 ff 9d f3 bd 2f 54 5c 3d a0 71 ea bd 33 c3 22 bc
       -0.1189537 0.05379122 -0.114474535 -0.009934234
000180 8e e3 42 3d 94 b8 bf bc 69 36 99 3d 99 8c a2 3d
       0.047580294 -0.023403443 0.07481081 0.07936973
000190 05 ed 04 bd c2 f9 97 bd c5 f5 51 3a 90 c4 01 3d
       -0.032452602 -0.074206844 0.000800934 0.031681597
0001a0 55 00 13 3c d4 94 fb bd f0 ee 60 bd be 0b 0b bd
       0.008972247 -0.12284246 -0.05491537 -0.033946745
0001b0 56 d5 53 3d f4 73 c5 3d ff 82 50 bd 31 83 6b 3c
       0.051717125 0.09641257 -0.050906178 0.01437454
0001c0 d6 c1 51 bd d2 e2 8b bd 46 47 2d bd dc 86 98 3d
       -0.051210247 -0.06830372 -0.0423043 0.074475974
0001d0 7c 53 26 bd 70 3f 59 3c 60 89 0a 3d 48 fa f9 bc
       -0.04060696 0.013259754 0.033822417 -0.030514851
0001e0 0e fe d9 3c 1a 7c a8 bd 6e 2e dd bd 96 0b 6a bd
       0.0266104 -0.082267955 -0.107998714 -0.057139955
0001f0 f5 fa 05 bd 15 5c 98 3d fb a6 7b bd ea b1 10 bd
       -0.032710034 0.07439438 -0.06143854 -0.035325922
000200 41 bf 0f 3d 20 af c2 bc fb b8 be 3d bf 34 ad bd
       0.035094503 -0.023765147 0.09312626 -0.08457326
000210 16 34 94 3d 36 00 4e bd e3 92 0d bd 04 1d f2 bc
       0.07236497 -0.05029317 -0.03456391 -0.029554851
000220 98 70 8a bc 10 1a 01 3d b1 f0 5f 3d 71 38 19 bb
       -0.016899392 0.031518996 0.0546729 -0.002337959
000230 01 a2 d0 bb 27 bd a1 3d 75 a7 30 3c 0c de 13 3d
       -0.0063669686 0.07897406 0.010782112 0.036100432
000240 38 44 92 3b ff 7e e6 3c 85 2a e4 bd 4e ec 00 bd
       0.0044636987 0.028136728 -0.111409225 -0.031475358
000250 b1 70 9f 3c 8f db 8d bb d2 76 13 3d fa 44 a6 bd
       0.019462915 -0.004329152 0.036001988 -0.08118625
000260 c8 0e 69 3d 50 5c 4c 3d 87 29 91 3d 47 cf 4d bc
       0.056898862 0.049892724 0.07087999 -0.012561626
000270 1d e9 a0 bc e3 c6 91 3d 52 24 43 3d 18 4a 99 bd
       -0.019642407 0.07118013 0.04764206 -0.074848354
000280 7e 58 88 bd da 0f 8b 3b f8 f2 1e bd 50 8c b3 bd
       -0.066575035 0.004243833 -0.03880593 -0.08766997
000290 d5 1b 35 3d 3d 5a 7e bd c4 2f 85 bd 25 8a 8c bc
       0.044215996 -0.062097777 -0.06503251 -0.017155716
0002a0 e5 fb 6c 3d 9e f4 94 3c 95 14 36 bb c3 a0 24 bd
       0.057857413 0.018183049 -0.0027783264 -0.040192377
0002b0 03 a5 2f 3b ea a8 31 bd 6b f6 62 3d 3e f1 22 bd
       0.0026801236 -0.04337398 0.055410784 -0.039780848
0002c0 ef 88 3a 3d 98 7f 97 3d 23 0b af 3d 8f 42 83 3d
       0.045540746 0.073973835 0.08547046 0.064091794
0002d0 21 b6 8b bd 46 ef 4c bd aa 95 34 bd 6b 40 29 3d
       -0.06821848 -0.050032876 -0.044088043 0.0413212
0002e0 33 f6 84 3d 28 b4 b9 bd 94 5e 55 3d 5c 31 72 bd
       0.06492271 -0.09067565 0.05209215 -0.059129104
0002f0 4d 2b b0 3d 74 5a 8f bd 13 46 26 bc 38 51 a4 3b
       0.08602009 -0.069996744 -0.010148543 0.005014565
000300 0d 78 da 3c 2f d5 ad 3c d0 89 9e 3d 9d 86 a8 3d
       0.026668573 0.021219818 0.077411294 0.082288004
000310 39 bb 9c 3d f7 72 e4 3c a1 b9 07 3d 20 48 0b 3d
       0.076528974 0.02788685 0.033136014 0.03400433
000320 46 85 d1 bd 63 b4 58 bd 7c 07 1e 3d a1 ab 48 3d
       -0.10230498 -0.052906405 0.038581356 0.048991803
000330 66 68 a6 bd 65 e7 92 3d f8 88 96 bd 68 b7 7c 3d
       -0.08125381 0.07173041 -0.073503435 0.061698347
000340 f1 7c 8c bc bf 45 85 bc 96 9d 66 bd 0d c6 b4 3d
       -0.01714942 -0.01626861 -0.05630263 0.08826838
000350 86 71 b6 bc f2 9c c6 3d 0c d6 53 3d 09 e2 30 3d
       -0.022270929 0.09697904 0.051717803 0.043184314
000360 8b 76 70 bd 75 80 4e 3d 48 ab 2c bd 46 b1 ab bd
       -0.0587068 0.050415475 -0.042155534 -0.083834216
000370 05 ed 74 bd fc 46 d8 bd f6 1b 97 bc b1 e3 9c ba
       -0.059796352 -0.10560414 -0.01844595 -0.0011969713
000380 f3 0a c6 bb 06 40 9a 3d c9 e0 a6 bd c3 4c 3a 3d
       -0.0060437857 0.07531743 -0.08148343 0.045483362
000390 dd 44 23 3c c5 43 c9 3c 63 eb bc bc ad 09 a2 bc
       0.009965149 0.024568448 -0.02306146 -0.019780004
0003a0 7c 78 07 3d 5a 78 39 3d 6c 28 34 3d f0 9e 8d bd
       0.033073887 0.04528079 0.04398386 -0.069150805
0003b0 23 e1 e8 bc 07 af 7e 3d 69 b6 97 bd c9 4d 98 bd
       -0.028427666 0.062178638 -0.07407839 -0.07436711
0003c0 24 2f 17 bd 6e f7 8e bd a0 b9 0e 3d 59 c3 9b 3d
       -0.03691019 -0.06980787 0.034844995 0.07605619
0003d0 54 7b a1 bd c1 f7 c5 3a 92 8d 76 bd c5 bb 6e bd
       -0.07884851 0.0015103744 -0.060193606 -0.05828454
0003e0 60 49 6f bd 3d a0 1f 3c 64 ef 06 bd 43 93 52 bd
       -0.058419585 0.009742794 -0.032943144 -0.05140997
0003f0 dc 27 0b bd e5 8b 69 bd 53 5e 02 bd 5e d1 c1 3d
       -0.03397356 -0.05701818 -0.031828236 0.09463762

actor.0.bias f4 [64]
000000 6a 2a b0 3d 92 8f 27 3d 6e 45 9c bd a3 06 b2 bd
       0.0860184 0.040908404 -0.0763043 -0.08692672
000010 e6 07 6f bd 62 15 40 3d 1a 58 62 bd ba b0 9e 3d
       -0.058357142 0.046895392 -0.0552598 0.07748552
000020 76 dc 26 3d 00 b5 99 3d 38 91 d2 3d 28 e9 28 3d
       0.04073759 0.07505226 0.102816045 0.04123798
000030 94 47 9e bc 56 5a 4f bc de e1 19 3e 32 f9 85 3c
       -0.01932124 -0.012655815 0.15027568 0.016354177
000040 88 54 c2 bd e3 23 e7 3d cd 92 6d 3d 1f e7 c0 bd
       -0.09488779 0.11286142 0.05800133 -0.09419083
000050 f5 f2 6d bc 6f 18 f5 3d a6 72 1e 3d 51 f9 bf 3d
       -0.0145232575 0.11967551 0.038683556 0.09373725
000060 1d 81 aa 3d 4d 95 f0 3c 85 b8 68 bd 04 80 08 bd
       0.08325408 0.029368067 -0.056816597 -0.03332521
000070 34 83 dd 3a ed 14 dc 3d af 97 f5 3d 1f d5 80 bd
       0.0016900063 0.10746179 0.11991822 -0.062906496
000080 d8 11 0c 3c 5c ce 00 3e 6a cc 23 3d 30 5d 84 bd
       0.008549176 0.1257872 0.039989866 -0.064630866
000090 a9 05 8d bd ff 1f b0 3d 08 98 3d bb 1f 85 54 ba
       -0.06885845 0.08599853 -0.002892973 -0.0008106995
0000a0 49 6c 19 bc 47 b0 3a bd 68 be c7 3c b0 ea 8f 3c
       -0.009364196 -0.045578267 0.024382785 0.017567962
0000b0 46 30 20 bd 00 c7 e5 3d 3e aa 2f 3d a9 93 33 3c
       -0.039108537 0.11219597 0.042886965 0.010960498
0000c0 ba fd 39 3a 68 f9 f0 3c 58 e2 8b bd 88 b8 bc 3c
       0.0007094998 0.029415801 -0.06830281 0.02303721
0000d0 29 0a a7 3c 20 96 14 3e 17 fc 11 bd e3 11 80 bd
       0.020390587 0.14510393 -0.035640802 -0.062534116
0000e0 39 42 6d 3d 23 6e e7 3c a1 64 e6 3d e2 04 08 3e
       0.057924483 0.02825076 0.11249662 0.13283113
0000f0 9c ed 30 bd aa a5 89 ba 74 d6 b6 bb 36 a3 d2 3d
       -0.043195352 -0.0010501642 -0.005579764 0.10285036

actor.2.weight f4 [3, 64]
000000 0d c1 44 39 1f ee 18 bd 4d 67 db bd 72 95 c9 bc
       0.00018763934 -0.037336465 -0.107130624 -0.024607394
000010 e4 c8 99 bc fb fc 1d 3e cb e0 86 3d 1e c7 e1 3d
       -0.01877255 0.15428536 0.065858446 0.11024307
000020 d3 5b 76 3d 46 40 e5 bc 94 29 15 3e 13 44 9c bd
       0.060146164 -0.02798475 0.14566642 -0.076301716
000030 25 7c de bc 16 ee 06 bd 18 69 c7 3d c9 b7 b0 b8
       -0.027158806 -0.0329419 0.09736842 -8.426567e-05
000040 34 ae ae 3d 2e 09 16 3e eb 67 b8 3c 0d 77 df 3d
       0.0852932 0.1465194 0.02251049 0.10911379
000050 9c 1c 5a 3d 2c 9d fa 3d df a6 23 bc 37 81 c2 ba
       0.05324994 0.122370094 -0.009988516 -0.0014839534
000060 32 17 a0 3d 28 e4 8f bd a6 a3 26 3d 9c f9 89 bd
       0.07816924 -0.07025939 0.04068341 -0.06737062
000070 56 7b 99 bd d5 3a 43 3e d6 bc e0 3d 34 7b 2e bd
       -0.074942276 0.19065411 0.109735176 -0.042597964
000080 6c 5e a0 bd 21 0e 22 3e 95 33 f9 bc c8 25 8e bd
       -0.078305095 0.15825702 -0.030420104 -0.069408
000090 cc b1 31 bd 1c 97 40 3e d2 67 10 bd 5c a5 b9 3d
       -0.04338245 0.18807644 -0.03525526 0.09064743
0000a0 8d 18 1f 3e 93 12 4f 3d b8 94 c4 3d 57 fd 6b bc
       0.15536709 0.050554823 0.09598678 -0.014403663
0000b0 a1 c5 a2 bd 86 cd b7 3d 17 87 28 bd a8 9b 50 bd
       -0.07947851 0.08974747 -0.041144457 -0.050929695
0000c0 16 b2 6c bd fa f7 e2 3d 4f e2 d9 3c 8a 21 28 3e
       -0.057787023 0.11082454 0.02659717 0.16419044
0000d0 af 0f c8 3d 40 f3 9d 3d 7f d3 4b bd 6f 4a 8c 3d
       0.097686164 0.07712412 -0.049762245 0.068501346
0000e0 cd 75 a7 bc 2d 13 a9 3c ab 7e 4b 3e 15 0e 56 3e
       -0.020441914 0.020639027 0.19872539 0.2090381
0000f0 4a 01 d7 bc 62 04 16 3e fa 1f 7b 3b bb 89 3f 3e
       -0.026245732 0.1465011 0.003831862 0.18704884
000100 ae 99 e8 bd 25 5f 17 3d 66 6d 4a bd 9c 42 73 3d
       -0.11357437 0.03695597 -0.049420737 0.059389696
000110 a5 4b 0d 3c 51 52 ef 3d ae c1 9f 3d 68 3f b9 bb
       0.008623992 0.116856225 0.07800613 -0.0056533106
000120 3f dd 25 be 6c 19 e2 bd 9d 83 10 ba 0e d6 ba 3d
       -0.1619768 -0.11040005 -0.0005512776 0.09122859
000130 38 4c 16 3c 0d 86 01 3d d5 aa 7c bd 7d 0e 1c 3d
       0.009173445 0.03162198 -0.061686356 0.038099755
000140 d4 10 b8 ba ca 4c 59 3d fd bf 93 bd ef 03 0f 3c
       -0.0014043101 0.053051747 -0.07214353 0.008728965
000150 38 33 36 bd 15 cd c6 3d e0 25 63 bd a2 a5 a9 bd
       -0.04448244 0.09707085 -0.055456042 -0.08283545
000160 98 b4 b8 3b 59 ef 06 3d d9 40 1f 3b d6 f7 21 be
       0.005636763 0.032943103 0.0024300127 -0.15817198
000170 28 00 c0 3d 9a 67 0d be 91 01 a8 3b ca 99 72 bb
       0.0937503 -0.13809052 0.00512714 -0.0037017935
000180 c7 30 a7 3d 7d f0 c4 3d 1b 1c 58 bd 45 1f 74 bd
       0.081636004 0.09616182 -0.05276118 -0.059600133
000190 88 c3 75 3d 32 7d 31 be be b6 17 bd 3b f4 1d be
       0.060000926 -0.17332914 -0.03703951 -0.15425198
0001a0 e3 7b 5d 3d f2 cc 6f 3d b9 cc cc bd c6 05 86 3d
       0.054073226 0.05854506 -0.09999985 0.0654407
0001b0 1f b6 bb bd ad 32 a8 bd f4 4c 9b bc 42 a3 c5 3c
       -0.09165596 -0.08212791 -0.018957593 0.024125699
0001c0 04 f1 13 bd c3 7a de bd 5f 46 ff 3d 8e a4 a7 bd
       -0.036118522 -0.10863259 0.12464594 -0.08185683
0001d0 a8 e5 12 be e9 eb d4 bd d2 71 08 bd e7 a6 d0 3d
       -0.1434542 -0.10396559 -0.033311673 0.10188084
0001e0 6e fa cc 3b a2 9a af 3d 9d 1a fd 3c fa 8f e3 bd
       0.0062554395 0.08574416 0.03089648 -0.11111446
0001f0 20 b8 c9 3d 9d b6 de bd 34 4d d7 bd 6c 89 6a bd
       0.09849572 -0.108746745 -0.10512772 -0.057259962
000200 37 28 c1 bd 9f fb b9 bc 5d 28 19 bd a1 66 89 3d
       -0.094314985 -0.02270299 -0.03739201 0.06709028
000210 61 f9 ec 3c 70 38 f5 bd 0b e7 2c be 69 0e e4 bd
       0.028927507 -0.11973655 -0.16885011 -0.11135561
000220 85 7e f2 bb 9a 60 ed bd 99 2e 19 3d 2b 46 97 bd
       -0.007400336 -0.11590691 0.037397955 -0.0738643
000230 8c fb 71 3d 98 8f ec bd ae 1f aa bd 23 29 9a bd
       0.059077784 -0.11550826 -0.08306824 -0.075273775
000240 6b c7 38 3d 70 9f b0 bd b5 12 07 be 67 8f 15 bb
       0.045112055 -0.0862416 -0.1319073 -0.002282107
000250 6e ab 39 3d 23 77 f1 bd ee 7b ec 3d c3 ef 00 be
       0.045329504 -0.11790302 0.11547075 -0.12591462
000260 cc 35 11 be 1c 9b 1d 3d 04 b6 21 bc 3c 7f d5 3d
       -0.14180678 0.038478002 -0.009870056 0.10424659
000270 5d c9 e0 3c ac 5f 18 be 1c 31 6d bd bf 53 93 3c
       0.027439767 -0.14880246 -0.057908162 0.01798427
000280 04 9c 00 3e 31 30 96 3c 8f a6 3b 3d 41 dc bc 3d
       0.12559515 0.018333526 0.04581314 0.092216976
000290 ae 84 cd 3d f2 9b 0d 3d 39 d1 9e 3d 7a 62 fd bd
       0.10035072 0.03457255 0.0775475 -0.123722985
0002a0 f3 59 d6 3d 79 a2 e8 bc 20 72 aa bd 47 05 94 3c
       0.10466375 -0.028397785 -0.08322549 0.018068923
0002b0 da 10 09 bd 74 57 00 bd 78 66 0c be 8d 33 e7 3d
       -0.033463337 -0.0313334 -0.13710964 0.112891294
0002c0 ed ee b1 bd 4c ca 89 bd 7f 52 9f 3d 94 9f 0c 3d
       -0.086881496 -0.06728038 0.07779407 0.034331873
0002d0 af e7 2d be 2b f4 14 be 29 64 80 bb 61 2c 8f 3c
       -0.16982912 -0.14546268 -0.00391819 0.017477216
0002e0 df 31 1b be 9a c0 f1 3d 1d 56 06 bd 45 49 60 3d
       -0.15155743 0.11804314 -0.032796968 0.054757375
0002f0 89 a5 4b 3d 22 c1 cb bc ba 6a b4 3d 4f f9 94 3d
       0.049718414 -0.024872366 0.08809419 0.07274114

actor.2.bias f4 [3]
000000 1f 78 33 3e 34 c1 6b bd f6 ae c5 bd
       0.17526291 -0.0575573 -0.09652512

critic.0.weight f4 [64, 128]
000000 2e f1 44 3d 5f d3 f6 3c 66 d0 42 3b 6a f5 31 3d
       0.04808157 0.030130086 0.0029726266 0.043446936
000010 8e 62 93 bc d8 d5 14 bd 13 be 7f bd fb c2 7b bd
       -0.01799133 -0.03633675 -0.06243713 -0.061465245
000020 f9 a9 48 bd 1a 4e 87 bc 05 c2 4b 3b c3 d4 0a 3d
       -0.048990224 -0.016516734 0.0031090986 0.03389431
000030 b2 34 81 bc e0 69 84 bd 31 b3 d3 bc ba a2 67 bc
       -0.015772197 -0.064655066 -0.025842281 -0.014137918
000040 d0 35 93 bd ed b9 8a bb f4 d5 68 bd 7c 23 93 bd
       -0.07187998 -0.00423359 -0.056844667 -0.071845025
000050 63 2e 43 3d 79 d2 13 bd fc aa 8c bd 71 06 b5 bd
       0.04765166 -0.036089394 -0.0686855 -0.08839119
000060 4b b9 14 bd ed d9 00 3d ca 64 ee 3d 2d 80 e6 3c
       -0.03630952 0.03145783 0.11640318 0.02813729
000070 46 87 9c 3a d3 93 e6 3b 10 b5 79 bd 83 fd 90 bd
       0.001194217 0.007036665 -0.06096369 -0.070796035
000080 08 70 8f bc 2b 6f b9 3b 00 a9 20 3d d1 e1 1a ba
       -0.017509475 0.005659004 0.03922367 -0.0005908283
000090 f5 b2 a9 3c 58 ec 0e bd 94 cb 60 bd ac 53 bf bd
       0.020715216 -0.034893364 -0.054881647 -0.09342131
0000a0 e3 cb 40 bd 95 86 60 3d df 82 5f bd ba 9c 2d 3c
       -0.04706944 0.054815847 -0.054568168 0.010596449
0000b0 cf 29 b4 bd 08 e4 8e 3c ce 7f 21 bd 07 ff d9 bc
       -0.08797037 0.017442718 -0.039428525 -0.026610864
0000c0 e1 c5 a8 3b ed 10 a4 bd 4d 33 e2 bc 14 e7 bb bc
       0.005150542 -0.08011041 -0.027612353 -0.022937335
0000d0 50 56 3d bb bd 5a 8b bd 28 f4 eb bd 76 41 66 bd
       -0.0028890558 -0.06804416 -0.115211785 -0.056214772
0000e0 49 82 e1 3c 34 9c 93 bd d4 f2 6e bd 09 8e 4f bd
       0.027527945 -0.07207528 -0.058337048 -0.050672565
0000f0 80 6f 60 bd fd d2 6b bd 2b 6d 61 3d e9 30 06 3d
       -0.054793835 -0.05757426 0.05503575 0.032761488
000100 74 61 ad 3b 80 a6 48 3d 1b c6 66 3c 92 6c 63 bd
       0.0052911583 0.04898691 0.014085318 -0.055523463
000110 be ff 7e 3d 40 d5 d2 3c ba 8a 17 bd 1c ab 2a bd
       0.062255614 0.025736451 -0.036997534 -0.04166709
000120 12 79 68 3c e2 14 d3 bd fb 68 e5 3c 6f 61 44 bd
       0.014189022 -0.103067175 0.02800416 -0.047944482
000130 5c 7e 7d bd de 15 85 bc e7 c2 6d bd 81 38 29 3d
       -0.061888084 -0.016245779 -0.0580472 0.041313652
000140 1c 7b c2 3d 86 56 2b bc 67 49 83 bb 97 4e 13 3d
       0.094961375 -0.0104576405 -0.004006553 0.03596362
000150 21 4b 0e bd ad 77 1d 3d 08 f7 94 bd 8d 74 ba 3d
       -0.034739617 0.03844421 -0.0727368 0.091042615
000160 62 e5 1f 3d 34 63 72 3d 93 4d 8e bd c5 88 b9 3b
       0.039037116 0.05917664 -0.0694839 0.005662056
000170 60 8f 4d 3d 91 a5 11 bd 06 87 48 3d a4 6b bb bd
       0.05018556 -0.035558287 0.048956893 -0.0915139
000180 ab 1f 83 bd cb 0a d9 bc f9 fc 7c bc 9a 38 3d bd
       -0.064025246 -0.026494404 -0.015441173 -0.046196558
000190 86 a9 5b 3c 89 d9 38 bc 96 a8 b0 3c 12 bc 9d bd
       0.013407117 -0.011282333 0.021564763 -0.07701887
0001a0 39 c4 2a bc 8b 5b c8 bc 1d d3 0a 3c 48 01 77 3c
       -0.01042276 -0.024457714 0.008473185 0.015075989
0001b0 5a 93 84 3d 15 0a 9f 3c 7a 44 82 3c 65 d8 37 bd
       0.064734176 0.019413987 0.015901793 -0.044884104
0001c0 62 ee 31 bd 9c e5 cc 3d 45 ca 35 3d 3c d1 93 3c
       -0.04344023 0.10004732 0.044382352 0.018044107
0001d0 79 f8 66 bd fb d7 26 3c 8c f0 c9 bd 7b 18 75 bd
       -0.056389306 0.01018333 -0.09860334 -0.0598378
0001e0 33 97 b3 bc 4e d1 0f bc c9 c6 b7 bc ff c5 c6 3c
       -0.021922683 -0.0087779295 -0.022433655 0.024264334
0001f0 f9 1b a3 bc 3d b3 ac 3c 45 97 49 3d 12 c6 0c bc
       -0.0199108 0.021081561 0.049216527 -0.0085921455
000200 b7 1d 2e bd 40 fc fb 3c d9 a9 cf 3d 11 f2 f0 3b
       -0.042508807 0.03075993 0.10139818 0.0073530753
000210 12 5a a1 3c b1 61 45 3d 11 3e 9b 3d 53 a6 88 3d
       0.01969627 0.04818887 0.075801976 0.06672349
000220 c5 b7 a6 3d be a5 5f bb c2 64 a8 bb ee 3c 90 bd
       0.0814052 -0.003412589 -0.0051389644 -0.070428714
000230 04 e4 c0 3d 76 f1 8e bd 22 71 b3 3d 2f 64 c6 3c
       0.094184905 -0.06979649 0.08761813 0.024217693
000240 67 04 73 3d 91 5c ad 3d dc 2e 17 3c 7f be 48 bd
       0.05933037 0.08464921 0.009227481 -0.049009796
000250 9c 09 08 3b ae c7 52 bd 1b e2 38 bd e0 e0 75 bb
       0.002075768 -0.05145996 -0.045137506 -0.003751807
000260 e9 37 8c bd 76 88 0f bc 60 e2 bd bc db 18 13 3d
       -0.068466015 -0.008760562 -0.023179233 0.035912376
000270 1f 57 be 3c 27 4e 89 3d 91 29 36 3d 60 32 2b bd
       0.023234902 0.067043595 0.044473235 -0.04179609
000280 01 31 a0 ba ea 29 bd 3d 46 22 47 bd 00 de 24 bd
       -0.0012221636 0.0923651 -0.04861667 -0.04025078
000290 92 1f c5 bd 4c 14 3c 3d 47 90 83 bc 09 da 05 3d
       -0.09625162 0.045917794 -0.016060008 0.032678638
0002a0 42 bc 48 bd b8 0d 51 bd ce 86 b4 3b 80 9f 1e 3d
       -0.04900766 -0.051038474 0.005509234 0.03872633
0002b0 9f 63 42 bd 17 ae 01 3d 29 68 9b 3c 78 bd aa 3d
       -0.047458287 0.031660166 0.018970566 0.083369195
0002c0 36 ed 85 bd a7 74 99 bd b1 61 2f 3d 59 40 af 3c
       -0.06539385 -0.07492953 0.042817775 0.021392988
0002d0 c8 8a c4 bc 65 73 6c bc 6f d0 38 3d b3 fb 5c 3d
       -0.023991957 -0.014431809 0.045120653 0.053950977
0002e0 b2 81 96 3b cb 70 5b bd f8 f2 9c bc b1 f8 a2 bd
       0.0045930976 -0.053574365 -0.019158825 -0.0795759
0002f0 24 95 27 bd d2 df ba 3c cf a3 aa 3b e2 6a 6c 3d
       -0.040913716 0.022811804 0.005207516 0.05771912
000300 16 41 3d 3d e2 5d 92 bd 80 22 bf bc 57 cb ac bd
       0.04620465 -0.07146813 -0.02333188 -0.084372215
000310 ff 3c 04 bd de 31 7e 3d 1d 3b de 3c 42 10 8b bd
       -0.032284733 0.062059276 0.027127797 -0.0679021
000320 cf cc 99 3d 75 8d ad 3b bf 90 81 3d da f1 7d ba
       0.07509767 0.005296404 0.06326436 -0.0009687223
000330 29 e2 30 3d b5 74 84 3d ee 76 97 3c 12 cd 71 3d
       0.043184433 0.064675726 0.018489327 0.05903346
000340 a6 46 ad 3d 63 c5 a9 bd 6a bf a6 bc 9b c9 9f 3c
       0.08460741 -0.08289602 -0.020354945 0.019505313
000350 9e da c4 3a b2 ec 12 bc 09 f6 51 bd 20 e1 db 3d
       0.0015018766 -0.008967565 -0.051260028 0.107362986
000360 7c 92 a2 bd de d8 63 bd 13 3f 9f bd 49 a1 78 3d
       -0.07938096 -0.055626743 -0.07775702 0.06070069
000370 66 91 a1 3d 4f 1a 95 3d f1 ac af bc 24 ff d8 bc
       0.07889061 0.072804086 -0.02144477 -0.026488848
000380 c3 ae aa bd cc aa 2c 3d 46 23 a4 3d 58 72 85 bd
       -0.083341144 0.042155072 0.080145404 -0.0651595
000390 32 21 18 bd d0 88 2e bd 30 a7 31 3d 7c 72 2f 3c
       -0.037141033 -0.042610943 0.043372333 0.010708448
0003a0 e5 e8 89 bd ca d6 44 3d 80 03 d4 3c 0d e4 0f bd
       -0.06733874 0.0480564 0.025880575 -0.035129596
0003b0 19 e2 8a bd f8 44 65 3d 04 94 98 3d 36 63 67 3c
       -0.06781406 0.055973977 0.07450107 0.014122775
0003c0 b5 bc 10 3d c5 4e 35 bd 54 df cf 3c 1e 6e 4a bc
       0.035336215 -0.044264574 0.025375046 -0.012355356
0003d0 d3 8e 39 3d 1d e4 6d bc 6e 11 c7 bd d7 c3 c6 3c
       0.045302223 -0.0145197185 -0.09720121 0.024263306
0003e0 2b 89 9d bd b3 4b af 3d f3 98 fe 3c a7 0d f7 bc
       -0.07692178 0.0855936 0.031078791 -0.030157877
0003f0 8d 0a c2 bc d3 53 70 bd 47 a9 72 3c d4 ca a9 3d
       -0.023686672 -0.05867369 0.014810867 0.082906395
